…
Start Tensorboard with "tensorboard --logdir runs/train-20250428-180517", view at http://localhost:6006/
[34m[1mhyperparameters: [0mlr0=0.01, lrf=0.2, momentum=0.937, weight_decay=0.0005, warmup_epochs=3.0, warmup_momentum=0.8, warmup_bias_lr=0.1, box=0.05, cls=0.5, cls_pw=1.0, obj=1.0, obj_pw=1.0, iou_t=0.2, anchor_t=4.0, fl_gamma=0.0, hsv_h=0.015, hsv_s=0.7, hsv_v=0.4, degrees=0.0, translate=0.1, scale=0.5, shear=0.0, perspective=0.0, flipud=0.0, fliplr=0.5, mosaic=1.0, mixup=0.0
Overriding model.yaml nc=80 with nc=11

                 from  n    params  module                                  arguments                     
  0                -1  1      3520  models.common.Focus                     [3, 32, 3]                    {}                            
  1                -1  1      9280  models.common.Conv                      [32, 32, 3, 1, 2]             {}                            
  2                -1  1      6984  models.common.C3                        [32, 48, 1, 3, 1]             {'e_bottleneck': 0.5}         
  3                -1  1     41664  models.common.Conv                      [48, 96, 3, 1, 2]             {}                            
  4                -1  1     53808  models.common.C3                        [96, 96, 3, [3, 3, 3], [1, 1, 1]]{'e_bottleneck': [0.5, 0.5, 0.5]}
  5                -1  1    110848  models.common.Conv                      [96, 128, 3, 1, 2]            {}                            
  6                -1  1    469312  models.common.C3                        [128, 256, 3, [3, 3, 3], [1, 1, 1]]{'e_bottleneck': [1.0, 0.5, 0.75]}
  7                -1  1   1180672  models.common.Conv                      [256, 512, 3, 1, 2]           {}                            
  8                -1  1    656896  models.common.SPP                       [512, 512, [5, 9, 13]]        {}                            
  9           [-1, 6]  1    200448  models.common.FF                        [[512, 256], 256, [1, 2], [1, 3], [1, 1]]{'separable': True}           
 10                -1  1    723712  models.common.C3                        [256, 512, 1, 3, 1, False]    {'e_bottleneck': 0.5}         
 11            [6, 4]  1     46688  models.common.FF                        [[256, 96], 128, [1, 2], [1, 3], [1, 1]]{'separable': True}           
 12                -1  1    108576  models.common.C3                        [128, 192, 1, 3, 1, False]    {'e_bottleneck': 0.5}         
 13           [4, -1]  1     20512  models.common.FF                        [[96, 192], 64, [1, 0.5], [1, 3], [1, 1]]{'separable': True}           
 14                -1  1     33192  models.common.C3                        [64, 96, 1, 3, 1, False]      {'e_bottleneck': 0.75}        
 15          [12, -1]  1     28320  models.common.FF                        [[192, 96], 96, [0.5, 1], [1, 1], [1, 1]]{'separable': True}           
 16                -1  1     30480  models.common.C3                        [96, 96, 1, 3, 1, False]      {'e_bottleneck': 0.5}         
 17          [14, 12]  1     75808  models.common.FF                        [[96, 192], 256, [2, 1], [3, 1], [1, 1]]{'separable': True}           
 18                -1  1    156240  models.common.C3                        [256, 192, 1, 3, 1, False]    {'e_bottleneck': 0.75}        
 19          [14, 12]  1    114720  models.common.FF                        [[96, 192], 384, [4, 2], [3, 3], [1, 1]]{'separable': True}           
 20                -1  1    665856  models.common.C3                        [384, 384, 1, 3, 1, False]    {'e_bottleneck': 1.0}         
 21      [16, 18, 20]  1     32400  models.yolo.Detect                      [11, [[10, 13, 16, 30, 33, 23], [30, 61, 62, 45, 59, 119], [116, 90, 156, 198, 373, 326]], [96, 192, 384]]{}                            
/home/jiwoo/anaconda3/envs/eautodet/lib/python3.9/site-packages/torch/functional.py:534: UserWarning: torch.meshgrid: in an upcoming release, it will be required to pass the indexing argument. (Triggered internally at /opt/conda/conda-bld/pytorch_1729647350383/work/aten/src/ATen/native/TensorShape.cpp:3595.)
…
